Model: "sequential_1"
_________________________________________________________________
Layer (type)                 Output Shape              Param #   
=================================================================
conv2d_1 (Conv2D)            (None, 32, 32, 64)        1792      
_________________________________________________________________
leaky_re_lu_1 (LeakyReLU)    (None, 32, 32, 64)        0         
_________________________________________________________________
conv2d_2 (Conv2D)            (None, 16, 16, 128)       73856     
_________________________________________________________________
leaky_re_lu_2 (LeakyReLU)    (None, 16, 16, 128)       0         
_________________________________________________________________
conv2d_3 (Conv2D)            (None, 8, 8, 128)         147584    
_________________________________________________________________
leaky_re_lu_3 (LeakyReLU)    (None, 8, 8, 128)         0         
_________________________________________________________________
flatten_1 (Flatten)          (None, 8192)              0         
_________________________________________________________________
dropout_1 (Dropout)          (None, 8192)              0         
_________________________________________________________________
dense_1 (Dense)              (None, 1)                 8193      
=================================================================
Total params: 231,425
Trainable params: 231,425
Non-trainable params: 0
_________________________________________________________________
Model: "sequential_3"
_________________________________________________________________
Layer (type)                 Output Shape              Param #   
=================================================================
dense_3 (Dense)              (None, 4096)              413696    
_________________________________________________________________
leaky_re_lu_7 (LeakyReLU)    (None, 4096)              0         
_________________________________________________________________
reshape_1 (Reshape)          (None, 4, 4, 256)         0         
_________________________________________________________________
conv2d_transpose_1 (Conv2DTr (None, 8, 8, 128)         524416    
_________________________________________________________________
leaky_re_lu_8 (LeakyReLU)    (None, 8, 8, 128)         0         
_________________________________________________________________
conv2d_transpose_2 (Conv2DTr (None, 16, 16, 128)       262272    
_________________________________________________________________
leaky_re_lu_9 (LeakyReLU)    (None, 16, 16, 128)       0         
_________________________________________________________________
conv2d_transpose_3 (Conv2DTr (None, 32, 32, 128)       262272    
_________________________________________________________________
leaky_re_lu_10 (LeakyReLU)   (None, 32, 32, 128)       0         
_________________________________________________________________
conv2d_7 (Conv2D)            (None, 32, 32, 3)         3459      
=================================================================
Total params: 1,466,115
Trainable params: 1,466,115
Non-trainable params: 0
_________________________________________________________________
Model: "sequential_7"
_________________________________________________________________
Layer (type)                 Output Shape              Param #   
=================================================================
sequential_6 (Sequential)    (None, 32, 32, 3)         1466115   
_________________________________________________________________
sequential_5 (Sequential)    (None, 1)                 231425    
=================================================================
Total params: 1,697,540
Trainable params: 1,697,540
Non-trainable params: 0
_________________________________________________________________
>1, 1/39, d1=0.711, d2=0.695,g=0.691
>1, 2/39, d1=0.622, d2=0.702,g=0.686
>1, 3/39, d1=0.533, d2=0.716,g=0.672
>1, 4/39, d1=0.415, d2=0.752,g=0.642
>1, 5/39, d1=0.308, d2=0.839,g=0.580
>1, 6/39, d1=0.177, d2=1.022,g=0.488
…
